…
                   input_shape = c(28, 28, 1)) %>%
     layer_max_pooling_2d(pool_size = c(2, 2)) %>%
     layer_conv_2d(filters = 64, kernel_size = c(3, 3), activation = "relu") %>%
     layer_max_pooling_2d(pool_size = c(2, 2)) %>%
     layer_conv_2d(filters = 64, kernel_size = c(3, 3), activation = "relu")
   model

::

   ## Model
   ## ___________________________________________________________________________
   ## Layer (type)                     Output Shape                  Param #     
   ## ===========================================================================
   ## conv2d_1 (Conv2D)                (None, 26, 26, 32)            320         
   ## ___________________________________________________________________________
   ## max_pooling2d_1 (MaxPooling2D)   (None, 13, 13, 32)            0           
   ## ___________________________________________________________________________
   ## conv2d_2 (Conv2D)                (None, 11, 11, 64)            18496       
   ## ___________________________________________________________________________
   ## max_pooling2d_2 (MaxPooling2D)   (None, 5, 5, 64)              0           
   ## ___________________________________________________________________________
   ## conv2d_3 (Conv2D)                (None, 3, 3, 64)              36928       
   ## ===========================================================================
   ## Total params: 55,744
   ## Trainable params: 55,744
   ## Non-trainable params: 0
   ## ___________________________________________________________________________

.. code:: r

   model <- model %>%
     layer_flatten() %>%
     layer_dense(units = 64, activation = "relu") %>%
     layer_dense(units = 10, activation = "softmax")
   model

::

   ## Model
   ## ___________________________________________________________________________
   ## Layer (type)                     Output Shape                  Param #     
   ## ===========================================================================
   ## conv2d_1 (Conv2D)                (None, 26, 26, 32)            320         
   ## ___________________________________________________________________________
   ## max_pooling2d_1 (MaxPooling2D)   (None, 13, 13, 32)            0           
   ## ___________________________________________________________________________
   ## conv2d_2 (Conv2D)                (None, 11, 11, 64)            18496       
   ## ___________________________________________________________________________
   ## max_pooling2d_2 (MaxPooling2D)   (None, 5, 5, 64)              0           
   ## ___________________________________________________________________________
   ## conv2d_3 (Conv2D)                (None, 3, 3, 64)              36928       
   ## ___________________________________________________________________________
   ## flatten_1 (Flatten)              (None, 576)                   0           
   ## ___________________________________________________________________________
   ## dense_1 (Dense)                  (None, 64)                    36928       
   ## ___________________________________________________________________________
   ## dense_2 (Dense)                  (None, 10)                    650         
   ## ===========================================================================
   ## Total params: 93,322
   ## Trainable params: 93,322
   ## Non-trainable params: 0
   ## ___________________________________________________________________________

-  Train model với MNIST

.. code:: r

   load("data/mnist.rda")
   c(c(train_images, train_labels), c(test_images, test_labels)) %<-% mnist
…
